OpenART & MCX/MCX/E08_mcx_vision_object_detection_demo/libraries/components/eiq/tensorflow-lite/model/face_detect_converted.tflite (tflite, 203328 bytes, 2 tensors)

NeutronMicrocode u1 [5632]
00000000: 6e4d 4364 1f7e d384 a215 0000 0000 0000
00000010: a215 0000 1000 0000 0016 0000 4cfb 0200
00000020: 00e0 0100 0100 0000 0300 0000 3700 0000
00000030: ef0f 0000 0000 0000 0000 0000 0000 0000
00000040: 0305 0500 0101 0100 0206 0000 0000 0000
00000050: 0000 0000 0000 2001 0000 3001 0000 0100
00000060: 0000 4000 0000 5000 0000 0800 0000 0100
00000070: 0000 8000 0000 a000 0000 0300 0000 0300
00000080: 0000 0300 0000 0200 0000 0200 0000 0000
00000090: 0000 0000 0000 0100 0000 0100 0000 0100
000000a0: 0000 0100 0000 1001 0f07 0000 0000 0000
000000b0: 0000 0100 0000 0100 0000 80ff ffff 3080
000000c0: 0000 0000 0000 0506 0305 0505 0101 0100
000000d0: 0413 0800 0000 0404 0404 0404 0404 0002
000000e0: 0304 0a0b 0c0f 0040 0100 4001 0000 8801
000000f0: 0000 b801 0000 4000 0000 5000 0000 0800
110 77 67 100 31 126 211 132
162 21 0 0 0 0 0 0
162 21 0 0 16 0 0 0
0 22 0 0 76 251 2 0
0 224 1 0 1 0 0 0
3 0 0 0 55 0 0 0
239 15 0 0 0 0 0 0
0 0 0 0 0 0 0 0
3 5 5 0 1 1 1 0
2 6 0 0 0 0 0 0
0 0 0 0 0 0 32 1
0 0 48 1 0 0 1 0
0 0 64 0 0 0 80 0
0 0 8 0 0 0 1 0
0 0 128 0 0 0 160 0
0 0 3 0 0 0 3 0
0 0 3 0 0 0 2 0
0 0 2 0 0 0 0 0
0 0 0 0 0 0 1 0
0 0 1 0 0 0 1 0
0 0 1 0 0 0 16 1
15 7 0 0 0 0 0 0
0 0 1 0 0 0 1 0
0 0 128 255 255 255 48 128
0 0 0 0 0 0 5 6
3 5 5 5 1 1 1 0
4 19 8 0 0 0 4 4
4 4 4 4 4 4 0 2
3 4 10 11 12 15 0 64
1 0 64 1 0 0 136 1
0 0 184 1 0 0 64 0
0 0 80 0 0 0 8 0

NeutronWeights u1 [195404]
00000000: d706 e2f0 f84a c0c7 2a16 bf56 0000 0000
00000010: e4eb f355 173b 0b1d b6b3 b7ab 0000 0000
00000020: 012c 0d1d e86c ae9e 500d a47c 0000 0000
00000030: e6e7 f675 5c61 0c43 c5a6 cac7 0000 0000
00000040: 7d68 4c7f e94a cdc0 32f5 d844 0000 0000
00000050: d7ff 0926 4b1a f222 e4d1 3add 0000 0000
00000060: f2e9 f5f3 5bdf cd37 0b9f 46f6 0000 0000
00000070: 5318 2a7f 5a22 f91d b681 efef 0000 0000
00000080: 1a15 ef15 7fe4 a846 0481 5bed 0000 0000
00000090: 29fa 5443 7f2a 0324 b68a feda 0000 0000
000000a0: 6e53 0f3f 4af6 cb28 f0cb 32e8 0000 0000
000000b0: ff05 d81f 320f ff07 e521 fbee 0000 0000
000000c0: 1300 0000 fc00 0000 c400 0000 0000 0000
000000d0: 3e00 0000 0f00 0000 2e00 0000 0000 0000
000000e0: f100 0000 0f00 0000 b600 0000 0000 0000
000000f0: 0000 0000 1a00 0000 0e00 0000 0000 0000
215 6 226 240 248 74 192 199
42 22 191 86 0 0 0 0
228 235 243 85 23 59 11 29
182 179 183 171 0 0 0 0
1 44 13 29 232 108 174 158
80 13 164 124 0 0 0 0
230 231 246 117 92 97 12 67
197 166 202 199 0 0 0 0
125 104 76 127 233 74 205 192
50 245 216 68 0 0 0 0
215 255 9 38 75 26 242 34
228 209 58 221 0 0 0 0
242 233 245 243 91 223 205 55
11 159 70 246 0 0 0 0
83 24 42 127 90 34 249 29
182 129 239 239 0 0 0 0
26 21 239 21 127 228 168 70
4 129 91 237 0 0 0 0
41 250 84 67 127 42 3 36
182 138 254 218 0 0 0 0
110 83 15 63 74 246 203 40
240 203 50 232 0 0 0 0
255 5 216 31 50 15 255 7
229 33 251 238 0 0 0 0
19 0 0 0 252 0 0 0
196 0 0 0 0 0 0 0
62 0 0 0 15 0 0 0
46 0 0 0 0 0 0 0
241 0 0 0 15 0 0 0
182 0 0 0 0 0 0 0
0 0 0 0 26 0 0 0
14 0 0 0 0 0 0 0
